labs/PEFT/soft_prompt_tuning/outputs/peft_model/adapter_model.safetensors (safetensors, 36048 bytes, 2 tensors)

base_model.score.weight f4 [2, 896]
00000000: 0807 8a3c b241 713d bb08 12bd 66dd 7cbd
00000010: 7119 bc3d ff57 56bb 7ecc fcbb df0a db3d
00000020: 569d 36bc 7153 bcbd e407 28bc a98d bebd
00000030: 8802 b5b9 b1a5 173d e9a4 973b 7724 273d
00000040: a56a dd3c aef4 42bc cd8c bfba 6faf 413d
00000050: ab27 f2bc 01d2 b33d dc2b 8a3d 988e 1b3c
00000060: 8dc6 963c a6b2 1abd faf0 12bd 9dad 973d
00000070: 8946 c93c 225d f13d 1cdc e83d f8ea 8cbd
00000080: b301 3c3d fb35 4abc bf30 febc bc8a eabd
00000090: 4eba 313d fb6e 83bd a646 dbbd f2f1 84bd
000000a0: 7011 28bd e448 60bd c00b 9ebc b21b 04bd
000000b0: 79ef 08bc 7e53 1cbe f191 9abd 5dbc 9abd
000000c0: f50e 96bd 1628 01be 25c0 ca3c f2f4 3ebc
000000d0: 2857 d03d c957 e8ba 3254 a3bd 0556 60bd
000000e0: 30f0 b13c cacd b6bd 3102 89bd 0ee3 853d
000000f0: 1273 a5bd 23b3 ebbc eb5d 5b3d 24b9 c53c
00000100: 3733 c2bd 3cef 05bd 6652 bc3d e22d 5a3d
00000110: b879 e3bd 339d 27bd 34e7 aeba ceb2 283d
00000120: aa97 0d3c 1f95 053e 400f e33c 3e9b 1dbd
00000130: 2a7f 823c 9ad8 a8bd 866d 47bd 7754 91bb
00000140: 923d bd3c 6655 a43c d34e b33c 82de 92bd
00000150: 79b1 a03d 1c33 37bb 9a61 863d 59ac 403d
00000160: 3ceb a93d 68e4 f73d 238e e1bc e62f aebd
00000170: 5627 5b3b c1e9 aabd 98af f7bd 64f7 d03c
00000180: 9d32 483a df4f 113e d853 f93d 9182 983c
00000190: b099 403d 29a3 c7bd a7ba 7ebc bf7a 37bc
000001a0: 82c3 c5bd 6b0c 203d feb4 073c ce21 7ebd
000001b0: 2820 1b3d 8c8e 4bbc fed8 71bb 1263 b1bc
000001c0: bd80 be3c 9b4f 803d e770 9ebd 9823 e73a
000001d0: f08e ba3b b537 1f3d e0ab a93d 5d20 1cbd
000001e0: 8504 713b 2c9f 20bd 864b 23bd bc29 253d
000001f0: 76af 133d 6a97 083d 54e3 a2bd ef0c e3ba
00000200: b0fd dbbc 4dbf a5bc 5f3f 9bbd 65a0 c5bc
00000210: 86cb 20bd 90af 703d adc7 a6b9 a652 af3c
00000220: c809 d83b 5776 6fba 99f7 3fbd 86f2 9bbd
00000230: fd24 cdbb 6408 a53c 10f6 053d 5013 58bc
00000240: 3120 f6b9 ae07 993b e820 4e3b ee22 52bd
00000250: 39da 98bb 0494 58bc f4a3 0fbc c4db 1b3d
00000260: 1ec1 4abc bdff a5bc 32c8 20bc 5ac3 cb3d
00000270: e2a5 d53d b30e b2bd 1924 14bd efad 86bc
00000280: 2bd4 c73c 044b f73d eb15 7d3d 0c24 11be
00000290: a610 d23c 815a 453d be2c eebc 1d64 b73c
000002a0: 6959 69bd 20cf 153e a0be 423d f525 50bd
000002b0: 69be 5fbd f670 493d 825b b7bc d590 4d3c
000002c0: c55e 59bd dd70 b13d b7bc 6c3c 9989 48bd
000002d0: fc63 f93c aeaf 34bd 0c2e 003e d56e 10bd
000002e0: d503 c33c d99e aa3d 1c5b 47bd 5cf2 08be
000002f0: 1bcd 79bd 349d f0bb afc8 abbb a587 83bd
00000300: acad 573d 77a6 3ebc d073 683c 05c9 4d3d
00000310: aaf6 75bd c7e5 1b3d ef36 8bbd 9a80 5abd
00000320: 35ba 85bd 49fe 03bc 80c8 35be 20c5 d63d
00000330: 2e2c dbbd 64c7 bb3d ba38 8dbb 6de7 e43d
00000340: 7455 12bb c773 dabc 334b ef3c 61c5 d5bd
00000350: 00df a3bc c525 eb3d 8d81 5e3d 2469 933d
00000360: dacf fabc 4703 40bd ae83 d3bc a7c9 3bbd
00000370: 59bf 24bd 77d1 1a3d 23ce cabd 9273 21bc
00000380: 340f 9fbc aaaf 363d 0fa6 c3bd acec 5fbd
00000390: 9c02 203d 173a ba3d 05d2 88bc bc77 50bd
000003a0: e46e e6ba de06 5b3d 9edb 743b 94e7 343d
000003b0: 0f89 30bd c7d3 873d 4e19 c7bd 77b0 0abc
000003c0: fa14 103c 0952 d1bc 2f14 6fbd bf66 39bd
000003d0: da80 8fbd 6594 8bbd bf04 fbbc fdec fcbc
000003e0: 0662 b63c cf54 c43d 611c a4bd c585 60bd
000003f0: 2810 a4bd 5809 223d 30e9 8b3d 719c 05bd
0.016849056 0.058900543 -0.035652857 -0.06173458 0.0918454 -0.0032706258 -0.007714807 0.10695433
-0.01114591 -0.09195603 -0.0102557875 -0.09304363 -0.00034524896 0.03702325 0.004627813 0.04080626
0.027028391 -0.0118991565 -0.0014614105 0.047286447 -0.02955993 0.087802894 0.06746647 0.009494446
0.018405223 -0.03776803 -0.035874344 0.07406161 0.024569767 0.11785342 0.113701075 -0.06880754
0.045900058 -0.0123419715 -0.031029103 -0.11452243 0.043390565 -0.06417652 -0.107068345 -0.0649146
-0.041032255 -0.054757014 -0.019292712 -0.032252975 -0.008357876 -0.15266225 -0.07547367 -0.07555459
-0.073270716 -0.12612948 0.024749825 -0.011655079 0.10172874 -0.0017726357 -0.07975043 -0.054769535
0.021720976 -0.0892597 -0.06689871 0.06537448 -0.080785885 -0.028771942 0.053556364 0.024136133
-0.09482425 -0.032698855 0.09195404 0.053266414 -0.111072004 -0.0409214 -0.001334405 0.041186146
0.008642117 0.13045166 0.027717233 -0.03847813 0.015929777 -0.082444385 -0.048688434 -0.004435118
0.023100648 0.020060252 0.021888172 -0.07171346 0.0784635 -0.0027954048 0.06561585 0.047039364
0.082968205 0.12104112 -0.027533596 -0.0850523 0.0033440194 -0.08345366 -0.12094039 0.02550859
0.00076369365 0.14190625 0.12174195 0.018616946 0.047021568 -0.09747917 -0.015547431 -0.011198699
-0.09656431 0.039074343 0.008282898 -0.062043957 0.037872463 -0.012424123 -0.003690302 -0.021653686
0.023254747 0.062651835 -0.07736378 0.0017634509 0.005693309 0.038871486 0.08284736 -0.0381168
0.0036776375 -0.039214298 -0.039866947 0.040323004 0.036056004 0.033347525 -0.07953516 -0.001732258
-0.026854366 -0.02023282 -0.075804465 -0.024124334 -0.039256595 0.05876118 -0.00031810757 0.021401715
0.006592963 -0.00091347605 -0.046866987 -0.07614617 -0.006260513 0.020145603 0.032705367 -0.013188198
-0.0004694476 0.004670105 0.003145272 -0.051302843 -0.004664686 -0.013218883 -0.008767117 0.03805138
-0.012375144 -0.020263547 -0.009813355 0.0994937 0.1043203 -0.0869421 -0.036167238 -0.01644036
0.024393162 0.12074855 0.06178848 -0.14173907 0.025642704 0.048182014 -0.02907407 0.022386605
-0.056970034 0.14629793 0.047545075 -0.05081745 -0.05462495 0.049179994 -0.022382502 0.012546738
-0.053068895 0.08664105 0.01444929 -0.04895935 0.030443184 -0.044112854 0.12517565 -0.035261948
0.023805538 0.08331079 -0.048670873 -0.13373703 -0.06098662 -0.007342959 -0.005242429 -0.064223565
0.05265586 -0.011636368 0.014187768 0.050240535 -0.06004969 0.03806093 -0.06797587 -0.0533453
-0.06529657 -0.008056232 -0.17752266 0.10486817 -0.10701786 0.0916889 -0.004309741 0.111769535
-0.0022328766 -0.026666535 0.029210662 -0.10438038 -0.020003796 0.11481813 0.054322768 0.07197788
-0.03061669 -0.046878126 -0.025819626 -0.045846608 -0.040221546 0.037797417 -0.09902599 -0.009854214
-0.01941643 0.04460112 -0.095531575 -0.054669067 0.03906499 0.09093111 -0.016701708 -0.050895438
-0.0017580655 0.053473346 0.0037362347 0.044166163 -0.04309946 0.0663219 -0.09721623 -0.008464924
0.008794064 -0.025551813 -0.058368858 -0.045264002 -0.07006998 -0.068154134 -0.030641912 -0.030874724
0.022263538 0.095864885 -0.08013225 -0.054815073 -0.08010894 0.039559692 0.06831586 -0.032619897

prompt_embeddings f4 [8, 896]
00000000: a20a e53c 7393 7f3d 46ab 3bbe 43dd 833d
00000010: a213 323e 8455 8b3d 78ed f1bd ddf3 c7bd
00000020: 5a3b 07be 87ac cfbd ecc7 1dbd 4492 e9bd
00000030: a370 8cbd e329 dcbd 55e6 a03b fa9b 44bd
00000040: 32de 833d ea7f 593e 47ba dcbd 9dbb 3d3e
00000050: 1a8a c2bd 721d 653d 17af 8d3e 6095 033d
00000060: 8a8c 093e 32fa 0b3d f440 fc3d 60d9 75bd
00000070: b439 343e 5cc8 9ebd b62d f83c 390f e8bd
00000080: bee6 0b3d 4aec 903e 1739 113c 8c84 82bd
00000090: b7d4 983d 04f9 0cbe d857 28be 09b0 72be
000000a0: 7541 92bd 775f 1d3e d503 0c3e f97a 3fbd
000000b0: 1066 883d 96ec 64bd 54aa 2e3d 699a 803e
000000c0: c998 aabd 5820 55bd 59ae 6d3d db19 9fbd
000000d0: cfc2 e8bd 9aae 5ebe d3e5 273d d276 10bd
000000e0: c993 f9bd b418 23be ed2c f93c e683 c53e
000000f0: 2d0c d73b e78b 31bc 4490 bcbd 3d64 8b3e
00000100: 8abe 683d 81a2 a8bc 95e3 8b3e 71f7 213e
00000110: 64ca ff3c 69ef f7bd faaf aebd 0abb 5f3d
00000120: ee6a 0cbe e863 bbbc 4c6f 99bd 4b82 823c
00000130: 8a8f 263d 5365 b83d 6ea2 0e3e 1e9b 05be
00000140: 9125 103d 2dff 773d 3030 363d 2072 0e3e
00000150: 0224 a8bc 7638 823d 8cca 9dbd f4b6 fe3d
00000160: 99cc 993d bb53 42bd b451 583e 2e16 61be
00000170: 43ca 7a3e 6765 59be f29d 7cbe ecff 0bbe
00000180: bac8 6e3d 7a53 5c3e ec2d 213e f24f 9c3e
00000190: 0621 a83c 0baf 3fbe e778 c33d ee1e 1fbe
000001a0: 3431 a9bb 5a1f 57bd 0567 833c 8a06 433d
000001b0: be39 f5bd 473a 6dbe 03fb d13d 5535 f0bd
000001c0: 0204 2ebc 53ba e53d 44b2 14be 5a37 8d3d
000001d0: 76f2 d53d 60a4 e53d 6c82 2ebe 78fe f43c
000001e0: 3277 3c3e 851b 913e 7c9b 1c3d 5cbf ae3d
000001f0: c5d5 05be 3d44 38be 55f0 d5bc baa7 d0bc
00000200: 7945 68bd 1f34 393d 3615 0d3e 0da4 0fbc
00000210: aad2 ffbc 485f c0bd f040 07be 4e5f 3a3d
00000220: 2a29 d63d 8af0 73be caf1 83bc 02f4 a13e
00000230: 41c3 c1bd 8518 0a3e c14b 363d ffe2 f2bb
00000240: 372e c93d b0e4 b13d 861b 0d3e 268a bebc
00000250: d8a4 e23d b372 093e 6bf6 1ebe c1b9 1f3e
00000260: d98b 813d 87b1 4abd c275 92bd f04b ea3d
00000270: bfcc 993c d6fd 1f3c 03b9 c9bd b6b1 2abd
00000280: 0a76 0bbe 4d48 d63c 62e0 1d3c 154b 8f3d
00000290: 1fa2 13bd 472d 493e 94df d03c 650e 403e
000002a0: e804 55be bdb3 20be 4dfc 4b3d 4cda 81bb
000002b0: 735e d83d 3580 30bc 0291 8a3d 78c4 0abd
000002c0: ef8c abbd 241a c73d 89c7 ee3d 1b91 8fbd
000002d0: 70f3 223e 6e78 57bd b509 033d 8dc7 59be
000002e0: 70db c63c bd90 973e 8679 86be d5e5 80be
000002f0: 480e e3bd d6de 343e 2980 083d 96ab 873e
00000300: 9817 b43d ca68 febb aea4 68be 8cb1 99bd
00000310: 551f 2ebe 157b e93d 6bd9 52bd 1896 193e
00000320: fa00 1abd a225 8cbd 9e03 da3c 85b9 de3d
00000330: aa16 043e 24f3 01be 582a b7bd b389 febd
00000340: ded5 d7bd 6f62 38bd 81fa 3cbd 855f 3d3e
00000350: 7049 383d 655b 773e 4648 1d3c 06ab eb3a
00000360: da1f 1c3e 77cd f83c 1aa9 adbd 48c8 423d
00000370: 610f 703e 38e8 913d 0ddf 7dbe e627 f3bd
00000380: 5d8f 5f3e 9358 953d f514 1d3d 51be 06be
00000390: 6ac2 ddbd 82c6 093e dfd0 7a3d 2221 3ebe
000003a0: 311b 0c3e d8c9 e03c 60a6 8fbd ab90 1c3c
000003b0: 4275 25be 964e ab3d 292d 093e 59e3 90bd
000003c0: fca7 67bd 5421 2f3c 93e6 15bd 5b28 d23c
000003d0: ef2d 05bd f947 37be b3d7 2fbe 516f 0abe
000003e0: 196d 70be 2127 c7bd bd78 c63d 845d dbbd
000003f0: 49ce 51bd 4830 083e 260b 96bc 617f fb3d
0.027959172 0.062396478 -0.18327054 0.06438687 0.17390302 0.0680342 -0.11812872 -0.0976331
-0.13206235 -0.10140329 -0.03852074 -0.11404851 -0.06857421 -0.10750177 0.00491027 -0.048000313
0.06438865 0.21240202 -0.10777717 0.185286 -0.09498997 0.055936284 0.27672645 0.032124877
0.13432518 0.03417415 0.12317076 -0.060021758 0.17600137 -0.07753059 0.030295234 -0.113310285
0.0341556 0.28305274 0.008863709 -0.063729376 0.07462447 -0.13766867 -0.1643976 -0.23699965
-0.07141391 0.15368448 0.13673337 -0.046748135 0.06660092 -0.05588969 0.042642906 0.25117806
-0.08329923 -0.0520328 0.0580276 -0.077686034 -0.11365282 -0.21746293 0.04099066 -0.035269566
-0.12186391 -0.15927392 0.03041693 0.38577193 0.0065627308 -0.010836578 -0.09207204 0.27224913
0.056822337 -0.0205853 0.2732207 0.15817048 0.031224437 -0.12106211 -0.085296586 0.054621734
-0.13712665 -0.022874787 -0.07491931 0.01593127 0.040664233 0.09003701 0.1392915 -0.13047454
0.035192076 0.06054609 0.04447955 0.13910723 -0.020524982 0.06358425 -0.077046484 0.12437239
0.07509727 -0.047443133 0.21124917 -0.21981117 0.24491219 -0.21230088 -0.24669626 -0.13671845
0.058296897 0.21516219 0.15740174 0.30529743 0.02052356 -0.18719117 0.09544545 -0.15539142
-0.005163336 -0.052520134 0.016040334 0.047613658 -0.11973904 -0.23166762 0.10252955 -0.11728922
-0.010621073 0.11217179 -0.14521128 0.06895323 0.104466364 0.11212993 -0.1704194 0.029906496
0.18404844 0.28341308 0.03823422 0.08532593 -0.13069828 -0.17994781 -0.026115576 -0.025470603
-0.05670688 0.045215722 0.13777623 -0.00876714 -0.031228382 -0.093931735 -0.13208365 0.045501046
0.1045707 -0.23822227 -0.016106505 0.31631476 -0.0946107 0.13485916 0.04450584 -0.007412314
0.09823268 0.08686197 0.1378003 -0.023259234 0.11066598 0.1342266 -0.15523688 0.15598203
0.06325502 -0.04948571 -0.07151367 0.11440265 0.018774388 0.009765109 -0.09849741 -0.041673385
-0.13619247 0.026157523 0.009636017 0.06996743 -0.036043283 0.19646178 0.025497235 0.18755491
-0.20802653 -0.15693565 0.04980116 -0.0039627906 0.1056489 -0.010772754 0.06765939 -0.033878773
-0.0837649 0.09721783 0.11659152 -0.070100985 0.15913177 -0.052605085 0.03199168 -0.21267529
0.024274558 0.29602614 -0.2626459 -0.25175348 -0.11086708 0.1766313 0.033325348 0.26498097
0.08793563 -0.0077639567 -0.2271907 -0.075045675 -0.1700414 0.11400429 -0.051476877 0.14998662
-0.037598588 -0.068431154 0.026613053 0.10875229 0.1289927 -0.12690407 -0.08943623 -0.12428608
-0.10538839 -0.04501575 -0.046137337 0.18493469 0.04499191 0.24155958 0.009599751 0.0017980046
0.15246525 0.03037141 -0.08479519 0.047554284 0.23443367 0.0712437 -0.24792118 -0.118728444
0.21832033 0.07292285 0.038350064 -0.13158537 -0.10828097 0.13454631 0.06123435 -0.18567327
0.13682248 0.027439997 -0.070141554 0.009555976 -0.16158012 0.083645985 0.13396133 -0.07074613
-0.056556687 0.010689098 -0.036596846 0.025654009 -0.03251451 -0.17898549 -0.17172126 -0.13519026
-0.23479117 -0.0972426 0.09690998 -0.10711196 -0.05122212 0.13299668 -0.018315863 0.12280155
